model/keypoint_classifier/keypoint_classifier.tflite (tflite, 6792 bytes, 6 tensors)

arith.constant f4 [9, 10]
0	0x3ea81758	0.3283031
1	0x3e4d8a89	0.20072378
2	0x3f423525	0.7586234
3	0xbf4f36e4	-0.8094313
4	0xbe91e350	-0.28493738
5	0x3f14e6de	0.58164775
6	0xbef3dc7a	-0.47629148
7	0xbe47f284	-0.19526106
8	0x3f84e4a8	1.038228
9	0x3e8df91c	0.27729118
10	0x3d269d11	0.040677134
11	0x3c80f4a8	0.015741661
12	0xbfac769b	-1.3473696
13	0xbe559894	-0.20858985
14	0x3f0b9748	0.5452771
15	0x3e91a8c6	0.28449076
16	0x3ed786a1	0.420949
17	0x3ebb1114	0.36536467
18	0x3dc10706	0.09425168
19	0xbfa5df1a	-1.295871
20	0xbf8e8b4e	-1.1136262
21	0x3ea9b623	0.33146772
22	0xbd299075	-0.04139753
23	0xbf5e157f	-0.8675155
24	0xbf0da777	-0.55333656
25	0xbf66fd4c	-0.9023025
26	0x3f54391d	0.8289965
27	0xbf381769	-0.7191072
28	0x3ed98797	0.4248626
29	0x3e51373d	0.20431228
30	0x3db93a45	0.09044317
31	0x3f534263	0.82523173
32	0xbeaf2167	-0.3420517
33	0xbeb09bdd	-0.34493914
34	0x3f09bc75	0.5380319
35	0x3ec440f4	0.38330805
36	0xbf9b0238	-1.2110052
37	0x3e6294cd	0.22127075
38	0x3e823b56	0.25435895
39	0xbe077fd5	-0.13232358
40	0xbf73cd90	-0.9523554
41	0xbf677af5	-0.9042199
42	0xbf8fbe06	-1.1229866
43	0x3f521abf	0.8207206
44	0x3f277541	0.6541329
45	0xbdebff57	-0.115233116
46	0x3e5a01c0	0.2128973
47	0xc014abfb	-2.3229969
48	0x3980e514	0.0002458474
49	0x3f322489	0.69587
50	0xc014c523	-2.3245323
51	0xc004bb7e	-2.0739436
52	0xbef125a3	-0.47099027
53	0x3f301086	0.6877521
54	0xc06f4cbd	-3.7390587
55	0xbff4ad84	-1.9115453
56	0x3f31d983	0.6947252
57	0x3e692928	0.22769606
58	0xbf32ccc5	-0.69843704
59	0x3e850cd0	0.25986338
60	0x3e36490d	0.17801304
61	0xc015df23	-2.3417442
62	0x3da1655f	0.07880663
63	0x3f47fb97	0.7811827
64	0xbe93bee8	-0.28856587
65	0x3e9fde3f	0.31224248
66	0xbea6d9c7	-0.32588026
67	0xbf34bfab	-0.7060496
68	0xbfbc6969	-1.4719669
69	0x3f154310	0.58305454
70	0x3f69a855	0.9127248
71	0xbee6ca7a	-0.45076352
72	0xbe1123a4	-0.14173752
73	0xbdaf23b8	-0.08551735
74	0xbf3f75ab	-0.7478892
75	0x3ef746d4	0.48296225
76	0xbf8410b6	-1.03176
77	0xbe0c5cd2	-0.13707283
78	0xbd5bbc7a	-0.053646542
79	0x3f171012	0.59008896
80	0x3f194356	0.5986837
81	0xbe9d9969	-0.30781105
82	0xbdd0d158	-0.10196179
83	0x3ed617f1	0.4181514
84	0xbeab7ff9	-0.33496073
85	0xbfbeece6	-1.4916046
86	0x3e2623c8	0.16224587
87	0x3f68072e	0.90635955
88	0xbf3897ca	-0.7210661
89	0xc0079b8c	-2.1188688

arith.constant1 f4 [10, 20]
0	0x3e3dca4f	0.18534206
1	0x3f3703be	0.71490085
2	0x3f485066	0.7824768
3	0x3fab2d4a	1.3373196
4	0x3bcbaccc	0.0062156674
5	0x3ddaa17a	0.106753305
6	0x3db5e320	0.08881211
7	0x3db5e6a3	0.08881881
8	0xbed76ce3	-0.4207526
9	0x3d2e3321	0.04252923
10	0xbe1704bc	-0.147479
11	0x3e15fdf7	0.14647661
12	0x3ed5b6c9	0.41741017
13	0x3f94a7c9	1.1613704
14	0x3e2f5ced	0.17125292
15	0x3efbac44	0.49154866
16	0x3f50e1a7	0.8159432
17	0xbefea455	-0.4973475
18	0x3f4410ba	0.7658802
19	0x3e21f388	0.15815556
20	0x3ec9429b	0.39308628
21	0x3e261943	0.16220574
22	0x3f56c321	0.83891493
23	0x3f6a5d6a	0.9154879
24	0x3e9dd383	0.30825433
25	0x3f6f56fb	0.93492097
26	0x3f132982	0.5748521
27	0xbddae1e1	-0.10687614
28	0x3f2100bc	0.62891746
29	0x3e313576	0.1730555
30	0x3f10fc53	0.56635016
31	0xbe4ebf69	-0.20190205
32	0x3fb0b422	1.3804972
33	0x3ea9f77d	0.3319663
34	0x3f94db1f	1.162937
35	0x3d80544a	0.06266077
36	0x3f8993f5	1.0748278
37	0x3f5da842	0.86584866
38	0x3fa14c33	1.2601379
39	0xbb828346	-0.003982934
40	0xbce83ee4	-0.028350301
41	0xbda03be4	-0.07823923
42	0x3e94af41	0.29039958
43	0xbebb52c8	-0.36586595
44	0xbf325ade	-0.696699
45	0x3db038b5	0.08604566
46	0xbf0de270	-0.5542364
47	0x3ed74ab6	0.42049187
48	0x3e87ea7b	0.26546082
49	0x3dc4b65b	0.09605094
50	0xbe667dc5	-0.22508915
51	0xbe35b186	-0.17743501
52	0x3da049e0	0.078265905
53	0x3e452845	0.19253643
54	0x3f177226	0.5915855
55	0x3eaa9ebe	0.33324236
56	0x3f04e77f	0.51915735
57	0xbf9f700c	-1.2456069
58	0x3eb8fc70	0.36130095
59	0x3e82ccf8	0.25547004
60	0xbdb2c743	-0.087294124
61	0x3eb5cf07	0.35509512
62	0xbe80acb8	-0.25131774
63	0xbe8d1582	-0.27555472
64	0xbdd0dfd4	-0.10198942
65	0x3e93232d	0.28737774
66	0xbcd093d3	-0.025461113
67	0x3eebc58b	0.4604915
68	0xbf35227c	-0.70755744
69	0xbe0efee9	-0.13964428
70	0xbf895113	-1.0727867
71	0xbe48b236	-0.19599232
72	0xbecf655a	-0.40507013
73	0x3ea24792	0.3169523
74	0xbed39057	-0.4132106
75	0x3f4b46cf	0.7940492
76	0xbf3d1e38	-0.73874235
77	0xbeefc053	-0.4682642
78	0xbf16af10	-0.58860874
79	0x3c9f00ab	0.019409498
80	0x3e18fa79	0.14939298
81	0x3f52ddec	0.82369876
82	0x3dc16b30	0.094442725
83	0xbc1e4734	-0.009660531
84	0x3ea3831e	0.31935972
85	0x3faae563	1.3351253
86	0x3f43cf59	0.7648826
87	0x3f456704	0.77110314
88	0x3f1dbca1	0.6161595
89	0x3e32ced9	0.17461719
90	0xbf017295	-0.50565463
91	0x3e112059	0.14172496
92	0xbe5506e4	-0.2080341
93	0x3c172d33	0.009227085
94	0xbe862122	-0.26197153
95	0x3f4d5be6	0.8021835
96	0xbee6c0f4	-0.45069087
97	0xbe8b6deb	-0.27232298
98	0xbda6a3a5	-0.081366815
99	0xbdb3571f	-0.087568514
100	0x3f07d3be	0.5305747
101	0x3f7eb13b	0.9948918
102	0xbe668592	-0.2251189
103	0x3f6fa312	0.936082
104	0x3ebf6641	0.373827
105	0xbd17cdd6	-0.037061535
106	0x3dcf1794	0.10111919
107	0x3fae2e4d	1.360788
108	0x3ebe3f7d	0.37157813
109	0x3df80f23	0.12112262
110	0xbe82a6d7	-0.25517914
111	0x3e1d4a75	0.15360434
112	0x3e1e8e53	0.1548398
113	0x3f5a5b96	0.85296
114	0x3d04c1e9	0.03241149
115	0x3f869c0e	1.0516374
116	0x3eba8ac5	0.36433998
117	0x3eb054f6	0.3443982
118	0x3e40c405	0.18824776
119	0x3e0da5e0	0.13832808
120	0x3fdc33ad	1.720327
121	0x3e7ce087	0.24695025
122	0xbe965e55	-0.29368845
123	0xbf5c42dd	-0.86039525
124	0x3f21fee9	0.6327959
125	0x3f52a9d9	0.82290417
126	0x3f0138e6	0.50477445
127	0xbf618775	-0.88097316
128	0x3cd7e4cc	0.026354216
129	0x3ef9ccf7	0.48789188
130	0xbde55a75	-0.11198894
131	0x3f2dbe5e	0.678686
132	0xbe5f43cd	-0.21803208
133	0xbe2aa7b3	-0.16665535
134	0x3ee16779	0.44024256
135	0xbea8d351	-0.32973722
136	0x3f476a9f	0.77897066
137	0xbc1d7bb7	-0.009612015
138	0xbe18c04b	-0.14917104
139	0x3f2f9052	0.6857959
140	0x3f1e8d36	0.6193422
141	0xbcc5060a	-0.024050731
142	0x3f703054	0.9382374
143	0xbdcfc646	-0.101452395
144	0xbf8263e2	-1.0186732
145	0xbca0592b	-0.019573769
146	0xbe2339e6	-0.15940055
147	0xbe88b1d4	-0.26698172
148	0xbf328a98	-0.6974273
149	0xbf8bf147	-1.0933007
150	0xbdf4e983	-0.11958601
151	0xbe11f95f	-0.14255284
152	0x3eef2c1d	0.46713343
153	0x3f902f3c	1.1264415
154	0x3e0ce781	0.13760187
155	0xbd4cad8a	-0.049970187
156	0xbf2808c4	-0.65638375
157	0xbe8f873d	-0.28032866
158	0x3f07a296	0.5298246
159	0x3e33ff36	0.17577824
160	0xbeada62b	-0.3391584
161	0x3d53d7d0	0.051719487
162	0x3f13b808	0.57702684
163	0x3f12f33d	0.574024
164	0x3f5738b3	0.8407089
165	0x3f0fb61c	0.5613725
166	0x3f439d17	0.76411575
167	0x3d5e63d6	0.05429443
168	0x3e0b876d	0.1362588
169	0x3f56e6eb	0.839461
170	0x3f63f0c9	0.89039284
171	0x3f5e50cf	0.86842054
172	0x3f3a35be	0.72738254
173	0x3ebaa127	0.36451074
174	0x3f086b27	0.532885
175	0x3de81dbb	0.11333796
176	0x3f3f59f3	0.74746627
177	0x3f2c7378	0.6736369
178	0x3f1867a9	0.5953317
179	0x3de8d110	0.113680005
180	0xbe983dc9	-0.29734638
181	0x3ec7bb73	0.390102
182	0x3d047134	0.03233452
183	0x3f1a8e54	0.60373425
184	0x3f29ac3a	0.6627842
185	0xbe321fe8	-0.17394984
186	0x3eb35a80	0.35029984
187	0x3ff1a279	1.8877708
188	0x3f0de478	0.5542674
189	0x3f4809a7	0.7813973
190	0x3f08c49a	0.5342499
191	0x3f2b6f5e	0.6696681
192	0x3e120a24	0.14261681
193	0x3cde1587	0.027109874
194	0xbf20daff	-0.6283416
195	0x3ff199e9	1.8875095
196	0x3e46ff31	0.19433285
197	0x3dae056f	0.0849713
198	0xbf6b63cd	-0.9194916
199	0x3fc9341c	1.5719028

arith.constant2 f4 [9]
0	0xbf99c42e	-1.2012994
1	0xbf257efa	-0.64646876
2	0x3f2280f2	0.63478005
3	0xbef740ab	-0.48291525
4	0x3ea8faa4	0.33003724
5	0x3f5d2dff	0.8639831
6	0xbe289940	-0.1646471
7	0xbb9ac7eb	-0.004723539
8	0x3ee40416	0.44534367

arith.constant3 f4 [10]
0	0x3c9202a2	0.017823521
1	0x3c4d4179	0.012527817
2	0x3ee4f03f	0.44714543
3	0x3f535000	0.82543945
4	0x3e7172d9	0.23578967
5	0xbf0fa112	-0.5610515
6	0x3fca006b	1.5781378
7	0x3f8babd5	1.0911814
8	0xbe5f0f0e	-0.21783087
9	0x3f32f6e6	0.6990799

sequential_9_1/dense_27_1/BiasAdd/ReadVariableOp f4 [20]
0	0xbf8e3617	-1.1110257
1	0xbf43c84b	-0.764775
2	0xbf1a888d	-0.6036461
3	0xbebe2f8b	-0.37145647
4	0x3f514399	0.8174377
5	0xbf6ff0d6	-0.9372686
6	0x3ee6e3d2	0.45095688
7	0xbee42b6e	-0.44564384
8	0x3dc102e1	0.09424377
9	0x3f12d06e	0.5734929
10	0x3f3d56c8	0.7396054
11	0x3f0ad561	0.5423184
12	0xbdb036c3	-0.08604195
13	0xbf10a3e8	-0.565001
14	0x3e2e217e	0.17004964
15	0xbeb493ac	-0.35268915
16	0x3d513f68	0.05108586
17	0x3f2a8a4b	0.6661727
18	0xbefa7270	-0.48915434
19	0x3e3aaae1	0.18229248

sequential_9_1/dense_27_1/MatMul f4 [20, 42]
0	0xbe63c580	-0.22243309
1	0xbe8796d1	-0.2648225
2	0xbf14704b	-0.57983845
3	0xbde7f172	-0.11325349
4	0xbf02b540	-0.51057816
5	0xbead4479	-0.33841303
6	0xbe3844d4	-0.17995006
7	0xbf1770a6	-0.5915626
8	0x3e133915	0.14377244
9	0xbe040d3e	-0.12895676
10	0xbf16fb3b	-0.589771
11	0xbeffaff7	-0.49938938
12	0xbe4a7ab6	-0.19773373
13	0xbd0c5024	-0.034256116
14	0x3df5c0ba	0.1199965
15	0x3e560d13	0.20903425
16	0x3e73c19e	0.23804328
17	0x3e21f863	0.15817408
18	0xbf17ac56	-0.5924734
19	0xbebf3be5	-0.37350383
20	0xbe824143	-0.25440416
21	0x3db85a8e	0.09001647
22	0x3e764536	0.2404984
23	0x3e478e64	0.19487911
24	0x3ebb3466	0.36563414
25	0x3e1f1610	0.1553576
26	0xbed68608	-0.41899133
27	0xbebafab1	-0.36519387
28	0xbee1b880	-0.44086075
29	0x3d590a0a	0.05298809
30	0x3db08570	0.08619201
31	0x3e68cea0	0.22735071
32	0x3e4a406d	0.19751139
33	0x3d91ea31	0.071247466
34	0x3e88f56c	0.26749742
35	0xbecd955b	-0.40153012
36	0xbea46384	-0.32107174
37	0xbdcc3309	-0.09970672
38	0x3d2fd018	0.042923063
39	0x3d06baf1	0.032893125
40	0x3e8d903e	0.2764911
41	0xbda619c9	-0.08110387
42	0xbdb55978	-0.088549554
43	0x3e56d484	0.20979506
44	0xbeee8f23	-0.4659358
45	0x3f721bf2	0.9457389
46	0xbd477036	-0.048690997
47	0x3e5a9e6f	0.213495
48	0x3da6a88b	0.08137616
49	0xbd9098d0	-0.07060397
50	0x3e2f7df5	0.17137893
51	0xbe1da0a3	-0.1539331
52	0xbd82f547	-0.06394439
53	0x3d3db356	0.046313606
54	0xbdde684e	-0.10859738
55	0x3d8938af	0.06700265
56	0xbd86c915	-0.06581322
57	0x3dd0a8e2	0.10188462
58	0xbcef0209	-0.029175775
59	0x3dd42edf	0.103605025
60	0xbd7ff912	-0.06249339
61	0xbc9c41c5	-0.01907433
62	0xbca6fe03	-0.020384794
63	0xbe11aab3	-0.14225273
64	0xbe9f14ac	-0.3107046
65	0xbefc1fc3	-0.49242982
66	0xbf4b47f8	-0.7940669
67	0xbf44f7e9	-0.7694078
68	0x3d8855ae	0.06656967
69	0xbcbf090a	-0.02331974
70	0x3e4da116	0.2008098
71	0xbd595a75	-0.053064782
72	0xbe024b2d	-0.1272399
73	0xbdbc798a	-0.09202869
74	0xbf4427d8	-0.76623297
75	0xbc14b736	-0.009076884
76	0x3ec234e6	0.37930983
77	0xbb4cf225	-0.003127226
78	0x3e799c18	0.24375951
79	0x3d7d80fc	0.061890587
80	0xbcf79c25	-0.030225823
81	0x3dfd81e2	0.12378289
82	0xbe92a403	-0.28640756
83	0x3e210d56	0.15727744
84	0xbdea0c02	-0.114280716
85	0x3e16179c	0.14657444
86	0xbe4597e8	-0.19296229
87	0xbef0b483	-0.4701272
88	0xbbd68e41	-0.0065477197
89	0x3e333135	0.1749924
90	0xbe7a70fe	-0.24457166
91	0x3d5ef255	0.054430325
92	0xbeb4e0dc	-0.35327804
93	0x3d249789	0.040183578
94	0x3e8a201d	0.26977625
95	0x3e2813fa	0.1641387
96	0x3d70359c	0.058644876
97	0x3e0e6302	0.13904956
98	0x3d8386dc	0.06422207
99	0x3e128d06	0.14311609
100	0x3d265e15	0.040617067
101	0x3e07ce90	0.13262391
102	0x3e812498	0.2522323
103	0x3e0d7c5b	0.13816969
104	0x3d29c570	0.041448057
105	0x3d9262a4	0.071477205
106	0xbd07d7eb	-0.0331649
107	0x3b4adfb5	0.0030956094
108	0xbc5b7ecd	-0.013396931
109	0xbce0bc34	-0.027433492
110	0xbcecf302	-0.028924469
111	0x3e06a356	0.13148245
112	0xbc17fdf8	-0.009276859
113	0xbca64f39	-0.020301448
114	0x3e961080	0.29309464
115	0xbed63ea4	-0.41844666
116	0x3eb48c8a	0.35263473
117	0xbeaa7915	-0.33295503
118	0xbe660fb0	-0.22466922
119	0x3d4bd4b2	0.04976339
120	0xbd11f2d5	-0.035631973
121	0xbdff5951	-0.12468208
122	0x3ec1da97	0.37862083
123	0xbf654a61	-0.8956662
124	0x3f0ed176	0.5578836
125	0xbf10e7cd	-0.566037
126	0x3e9ee14e	0.3103127
127	0x3e57a1ac	0.21057767
128	0x3ec4548e	0.3834576
129	0x3ed1278a	0.40850478
130	0x3e0bd13d	0.13654037
131	0x3e4a3987	0.19748507
132	0x3d2b2131	0.0417797
133	0x3e094482	0.1340504
134	0x3d4d9863	0.050194155
135	0x3dae392c	0.085069984
136	0xbc6c8631	-0.014436291
137	0x3d70ade7	0.058759596
138	0x3b79eb61	0.0038134682
139	0xba6bcdc9	-0.0008995203
140	0xbcead0ef	-0.02866408
141	0xbc79b717	-0.015241406
142	0xbd3e05b2	-0.04639215
143	0xbcfb1de5	-0.030653903
144	0x3cca47fa	0.024692524
145	0x3da7bab0	0.08189905
146	0xb98494b4	-0.00025287794
147	0x3d3cb7c0	0.046073675
148	0xbd67b6a5	-0.056570668
149	0x3c0cb70b	0.008588563
150	0xbdbded7e	-0.09273814
151	0x3c516b9d	0.012782005
152	0x3e03ca39	0.1287011
153	0x3e038f19	0.12847556
154	0x3dcb93eb	0.099403225
155	0x3d731647	0.059347417
156	0xbdaed4bb	-0.08536669
157	0xbd609568	-0.054829985
158	0xbf3ee612	-0.7456981
159	0xbfb9fcf1	-1.4530317
160	0x3e342ddc	0.17595619
161	0x3e5c3b4b	0.21506993
162	0x3e662520	0.224751
163	0x3e37b9b2	0.17941931
164	0x3e549ad5	0.20762189
165	0x3e062097	0.1309837
166	0xbeba581a	-0.3639534
167	0x3db84e8c	0.089993566
168	0x3d261e68	0.04055634
169	0x3e8f40fc	0.27979267
170	0x3f81ef65	1.0151182
171	0xbf0b4357	-0.5439963
172	0x3f43c1e5	0.76467735
173	0xbe793189	-0.24335302
174	0x3f488566	0.7832855
175	0xbee3840d	-0.44436684
176	0x3f45547c	0.7708204
177	0xbee65c7d	-0.44992438
178	0x3ace2060	0.0015726201
179	0x3e08a834	0.13345414
180	0xbe403b65	-0.18772657
181	0x3bd4d71a	0.0064953687
182	0xbd9579dd	-0.07298634
183	0xbd711984	-0.058862224
184	0xbeac7580	-0.33683395
185	0xbc1e7e4f	-0.009673669
186	0xbd19fabf	-0.037592646
187	0x3dee5d8a	0.11638935
188	0x3e4e0e22	0.20122579
189	0xbd89e272	-0.06732644
190	0x3e8e5e99	0.27806547
191	0xbdf0687c	-0.11738679
192	0x3e9408a1	0.28912833
193	0xbdf93338	-0.12167972
194	0xbe2d7857	-0.16940437
195	0x3e051ee6	0.13000068
196	0xbdbe09d9	-0.09279222
197	0x3c920bbb	0.01782786
198	0xbd2ba7b5	-0.041907985
199	0x3c2fec0e	0.010737432
200	0x3d29e704	0.04148008
201	0x3dd50f73	0.10403337
202	0xbf10308b	-0.5632407
203	0x3e27ae09	0.16374983
204	0xbeb2cc76	-0.34921616
205	0x3e14d2d0	0.14533544
206	0xbf758025	-0.9589866
207	0x3dd6a810	0.10481274
208	0xbf727bb1	-0.9471999
209	0x3e6376e1	0.22213317
210	0xbe68929e	-0.2271218
211	0xbe397b42	-0.18113425
212	0xbf0f294e	-0.559224
213	0x3ea300dd	0.31836596
214	0xbd672c35	-0.056438643
215	0xbe1ce363	-0.15321116
216	0x3e066435	0.13124163
217	0xbef5e836	-0.48028725
218	0x3e7ec767	0.24880753
219	0xbf8172be	-1.0113142
220	0xbd8f7ae5	-0.07005862
221	0xbdb3593b	-0.08757254
222	0xbe3f1c6a	-0.18663183
223	0x3d96bc9c	0.07360193
224	0xbe187f6f	-0.14892362
225	0x3df2f547	0.11863189
226	0xbe006f69	-0.125425
227	0x3dfac23b	0.12244078
228	0xbe11fbf9	-0.14256276
229	0xbdeeede2	-0.11666466
230	0xbe135cf6	-0.1439093
231	0xbd2a3491	-0.041554037
232	0xbe2137e7	-0.15743981
233	0x3bf82d3c	0.0075737517
234	0xbdf16ae2	-0.117879644
235	0xbc33835d	-0.010956612
236	0xbd760add	-0.060068954
237	0xbe403063	-0.18768458
238	0xbd597c95	-0.053097326
239	0xbd24d60b	-0.04024319
240	0x3c0d1d0a	0.0086128805
241	0x3d43e96d	0.047830034
242	0x3d8ebfc6	0.06970172
243	0x3c82c6e8	0.015963987
244	0xbd931806	-0.071823165
245	0xbe953b32	-0.29146725
246	0xbcc33584	-0.02382923
247	0xbe2d07bc	-0.16897482
248	0x3ddf970f	0.10917484
249	0xbe863ac3	-0.26216707
250	0x3d5cc1fc	0.053895935
251	0xbe41ab22	-0.18912938
252	0xbd3f90e8	-0.046769053
253	0x3c8a0920	0.016850054
254	0x3f1994a3	0.59992427
255	0xbef68897	-0.48151085
