model/point_history_classifier/point_history_classifier.tflite (tflite, 6548 bytes, 6 tensors)

arith.constant f4 [6, 10]
00000000: a82f bebf 418c a1c0 4d69 87c0 b3e9 8bc0
00000010: 4f79 633f e3d2 f2c0 5ac2 9bc0 e50f 8a3f
00000020: dc91 e3c0 4f2e 0440 6d1d 8c3f 7c2a a4bf
00000030: 1acb 45bf f7dd a53f 01d4 b03f 2cc9 00bc
00000040: 42ce 0440 1aea 16bf a43e d4bd 6c59 b3bf
00000050: 9189 16bf 5aee 483f 6525 b93e 7184 623f
00000060: ce5f a8be 97f6 b93e 2264 83be 43c6 c83f
00000070: 1ce6 783f 4886 a6bf 4413 1b3f 23c2 933f
00000080: edec a73f b22b ecbd 92fd 1bbf a1ba 5f3f
00000090: 653f 23bf 6c51 4fbf f245 bd3e 74b3 903e
000000a0: 8b34 97bf a619 76bf ac35 60bf cc5e febe
000000b0: e464 02c0 b34a 9dbf 71cb 12c0 4b9b aabf
000000c0: efdb 9ebf baa3 2cc0 9133 86bf 6949 7ebf
000000d0: 3aaa d1bf 0e90 8dbf 8707 83bf 4909 e2bf
000000e0: 0263 05c0 81aa adbf c6a9 4fbf d9cd 52c0
-1.4858294 -5.048371 -4.231604 -4.3722777 0.8885698 -7.588243 -4.8674746 1.0786101
-7.111555 2.0653265 1.094648 -1.2825465 -0.77263033 1.2958363 1.3814698 -0.007860463
2.075089 -0.5895096 -0.1036351 -1.4011664 -0.5880366 0.78488696 0.36161342 0.8848334
-0.32885593 0.36320946 -0.25662333 1.5685505 0.9722612 -1.3009729 0.6057627 1.1543621
1.3119179 -0.11531772 -0.6093379 0.8739415 -0.6376861 -0.80983615 0.36967427 0.28261912
-1.181291 -0.96132886 -0.87581897 -0.496817 -2.0374079 -1.2288421 -2.293667 -1.3328642
-1.2410868 -2.697493 -1.0484487 -0.99330765 -1.6380074 -1.1059587 -1.0236672 -1.7659084
-2.084168 -1.3567659 -0.8111843 -3.293814

arith.constant1 f4 [10, 24]
00000000: 1214 5a3f 8cdb 87bf d8dd 313f fb2a 19bf
00000010: fc13 433f 17b9 303f fff7 acbe 07ec 0f3f
00000020: 9e2a 653f f80c 3e3f 7099 1ebe b364 8bbe
00000030: 9b79 c03e 55f9 8bbf 3418 a4be 2393 803f
00000040: 2cbf 993e 1136 233f dc77 803f 7966 253f
00000050: 418e 953e 55cb 42bf b332 923e bc5a 153f
00000060: 5283 c3bd c357 e73f 637c 193f aa9c 0b3f
00000070: 09f6 7f3e e250 f1bd 6d7c 14bf b4a0 9e3f
00000080: 1c75 cbbe 3003 9a3f 0b56 bd3f 8b4f 36bf
00000090: 8996 853f cdc5 f93f dc24 d33f ed7a 293e
000000a0: 94fe c33f 0dcd 863f 71ae b63e cbc8 063f
000000b0: a801 913f 660d ba3f dd3c 33bf 1e24 073f
000000c0: 3f79 503f cff2 673f 78a5 14bf 39d1 7d3f
000000d0: 1f7b 673f cb97 e93e db89 993f e6ca 5ebf
000000e0: 6976 1d3f de16 e33e 2355 533f 0e5f 693f
000000f0: 570c 0cbf 03ec 093f 9936 143d db10 d7bd
00000100: 35dc 883f b394 2fbf 7a35 e5be f8f2 94be
00000110: c65a aabf 7bad 713f a01a 393f 9ce0 10bf
00000120: 3737 893f 6521 dd3e 8827 e1bd 27c9 e73e
00000130: f5da 8bbe 00ac 683f 2de2 a2be 5e63 0d3f
00000140: 0c73 923f 7159 4b3f dbc3 323c 3892 223f
00000150: c651 a53f 518d fb3e da5c a2bd 2241 123f
00000160: 6804 903e 3ef1 ab3e 675f cd3e 4408 e73e
00000170: 9660 cc3d fd20 e13e 5b3d 8e3e dd9f 1fbe
00000180: 1811 043f fd8b d8be 386e 273e 882f 6cbd
00000190: 9140 a13e 1674 a73e 25eb 85be 504b 823f
000001a0: 4e12 66bd 6951 12be 09d1 89bf ed74 153e
000001b0: d225 683f e87b 0abf 90cf e2bf 2dcd ca3e
000001c0: f780 06bf e223 4d3f cba3 843e 6134 e3bf
000001d0: 1f68 313c 00a1 b3bf 9f2d 343f a989 bb3d
000001e0: f75a 3c3f b716 a13f 5ed0 593f 205a b23f
000001f0: e866 7e3f 0f84 533f 28b8 313f 66e1 bd3e
00000200: 2a8c 133f 5a5d f63f ab8b b03f 88d3 963f
00000210: 810a b03f 6231 0240 3281 893f dea2 2d3f
00000220: 286b 0d3f 6d0f 043e d0cd 273f b168 693f
00000230: 0260 773f 7ea6 9f3f ee62 073f f383 243f
00000240: 11b8 8dbf 32cb 4bbf 9561 3d3f ea5b 3d3f
00000250: 96ed 7a3f 3594 813e f016 883f dd42 54c0
00000260: 670a f3bd bb45 d5be 5d77 193f cd99 9dbe
00000270: b895 21c0 dfc9 f7bf 9316 b9be de9c 55be
00000280: eee7 0fbe 4f5e 02c0 09bd 883e c6b5 813f
00000290: 162d 3e3f 4f00 153f 8807 42bf 68cd 463f
000002a0: 5821 2fbf e644 b93e ac31 0c3e a5e0 073f
000002b0: 8f6b ff3a 6c36 c6bf c82c e53e 8ba0 9a3e
000002c0: 2e70 dabf ceb1 33bf ec77 08bf 6eb8 1ebe
000002d0: 19bf d2bd 9db1 af3e 7d48 273e 5e2a 0ec0
000002e0: c333 20be 1f6f 563e 3754 e7bf 04a6 03bf
000002f0: c292 cd3e e8ca 773e 751b 2abe 70a6 a13e
00000300: 73dc 8f3f a8c4 bd3f 1425 f03e 7bb4 bc3f
00000310: 6092 7e3f 4fe1 513f e805 7a3f ccfc a63e
00000320: 8d37 453f d483 a93f e8ed a43f 9c0f 453f
00000330: c737 ab3f 33dc be3f 4149 ae3f 1f53 673f
00000340: 9889 ad3f 868a 993e a96e 743f aa04 373f
00000350: e4a5 a43e dbd3 9d3f fd2b 9f3f 9c13 923e
00000360: 4283 35be fc43 0dc0 a6f1 9c3d 9b20 febf
00000370: b508 a43c 0cf5 c9be c316 a8be bfb4 dbbe
00000380: d1df 39bf c272 8dbf 0dfd 403f e2c6 00bf
00000390: 84e5 73bf 45dd 15c0 c7fa 90bf 1988 81bf
000003a0: 0af5 80bf 1f45 97be 97dd 6bbf 0fcb ffbe
000003b0: 60ae 01bf 5644 0ac0 a3f8 02bf d366 993e
0.85186875 -1.0613875 0.6947913 -0.5983121 0.7620237 0.69032425 -0.33782956 0.56219524
0.89518154 0.7423854 -0.1548822 -0.27225265 0.37592778 -1.0935465 -0.32049716 1.0044903
0.30028665 0.63754374 1.0036578 0.64609486 0.29210094 -0.7609151 0.28554305 0.58341575
-0.09546532 1.8073658 0.59955424 0.54535925 0.24996199 -0.11783005 -0.5800236 1.2392793
-0.39737785 1.2032223 1.4791883 -0.7121512 1.0436565 1.9513489 1.6495624 0.16550799
1.5312066 1.0531327 0.35679963 0.52650136 1.132863 1.4535339 -0.70014745 0.52789485
0.81435007 0.9060487 -0.58064985 0.99147373 0.9042224 0.4562362 1.1995195 -0.8702835
0.61508805 0.44353384 0.82551783 0.91160667 -0.5470633 0.5387575 0.03618488 -0.10501262
1.0692202 -0.6858627 -0.44767362 -0.2909162 -1.3308952 0.94405335 0.7230625 -0.56592727
1.0719975 0.4318954 -0.10993868 0.45270655 -0.27315488 0.9088745 -0.31813183 0.5522975
1.144136 0.7943335 0.010910953 0.6350436 1.291558 0.49131253 -0.07927866 0.57130635
0.28128362 0.3358249 0.4011185 0.45123494 0.0997936 0.4397048 0.27781186 -0.15588327
0.51588583 -0.42294303 0.16350639 -0.057662517 0.31494573 0.32705754 -0.26155964 1.0179234
-0.0561698 -0.14288868 -1.0766917 0.14595385 0.9068271 -0.54095316 -1.7719593 0.39609662
-0.52540535 0.8013288 0.25906214 -1.775036 0.010828047 -1.4033508 0.7038211 0.09157116
0.735763 1.2585057 0.8508357 1.3933754 0.9937577 0.8262338 0.69421625 0.37086028
0.5763575 1.9247239 1.3792623 1.1783304 1.3753206 2.034264 1.0742552 0.6782664
0.5524163 0.1289651 0.6554842 0.9117537 0.9663087 1.2472684 0.5288533 0.6426384
-1.1071798 -0.79606926 0.73977023 0.73968375 0.9801878 0.25308385 1.0632 -3.316581
-0.118672185 -0.41654763 0.5994776 -0.30781403 -2.524763 -1.9358481 -0.36150035 -0.20860621
-0.14053318 -2.0370061 0.26706722 1.0133598 0.74287546 0.58203596 -0.7579274 0.77657175
-0.68410254 0.36185378 0.13690823 0.53077155 0.0019487011 -1.5485358 0.44760728 0.3020061
-1.7065485 -0.70193183 -0.53307986 -0.15500042 -0.10290355 0.34315196 0.16336246 -2.221336
-0.15644746 0.20940827 -1.8072575 -0.51425195 0.4015103 0.24198496 -0.16612037 0.31572294
1.1239151 1.482564 0.46903288 1.4742578 0.994421 0.8198442 0.9766526 0.32614744
0.7703789 1.3243356 1.2885103 0.76976943 1.3376397 1.491095 1.3616105 0.9036121
1.3557615 0.29988497 0.95481354 0.7149149 0.32157815 1.2330278 1.2435299 0.28530586
-0.17725852 -2.2072744 0.07663278 -1.98537 0.020023683 -0.39444768 -0.32829866 -0.42911336
-0.7260714 -1.1050646 0.75386125 -0.5030347 -0.9527209 -2.3416302 -1.1326531 -1.0119659
-1.007478 -0.29544923 -0.92134994 -0.4995961 -0.506567 -2.160421 -0.5116064 0.2996126

arith.constant2 f4 [6]
00000000: f2bf c93e f13d 1c3f c226 92bd 78cb 10be
00000010: 4d04 efbe a2b7 bdbe
0.39404255 0.61032015 -0.07136299 -0.14140117 -0.4668297 -0.37054163

arith.constant3 f4 [10]
00000000: 9e11 383f b2b4 b5be e900 633e 3fd2 60bc
00000010: 02e9 4d3f b016 3f3d 160d a53e d1f4 b63f
00000020: ec46 503d e788 0940
0.7190188 -0.35489422 0.22168316 -0.013722002 0.80433667 0.046652496 0.32236546 1.4293462
0.050848886 2.1489809

sequential_4_1/dense_12_1/BiasAdd/ReadVariableOp f4 [24]
00000000: 3621 8dbd 34b8 43be 1dd0 d5bd 7f62 13be
00000010: fe59 01be 2d6e 18be b519 f8bc 70ff 113d
00000020: 81d4 0abe 20da 28bd cbab 24be 9a94 9dbd
00000030: 8f61 b7bc eb79 09be 98df 4cbe caea 31be
00000040: 1f40 22be a9f2 6b3d caa7 48be 45ae 89bd
00000050: 6a78 1cbd c879 1bbe 2cd8 95bd 5779 83bd
-0.068911 -0.19113237 -0.10440085 -0.14393042 -0.12631986 -0.14885779 -0.030285696 0.035643995
-0.13557626 -0.041223645 -0.16081159 -0.07694359 -0.022385387 -0.13425414 -0.20007169 -0.17374721
-0.15844773 0.057604466 -0.19595256 -0.067226924 -0.038200773 -0.15183175 -0.07316622 -0.06419628

sequential_4_1/dense_12_1/MatMul f4 [24, 32]
00000000: ecff 9dbe 4c7f 723e 2083 dd3e 3337 2440
00000010: 6738 debd c072 1b40 2a72 b5bd 1309 c63f
00000020: bbbc 97be 2fa4 833f 87aa 25bf 412c ca3e
00000030: 0ea9 6abf fc96 093e 1d15 54bf 3118 22bd
00000040: 7ca9 acbf 38e7 c4bd 2133 6abf 5eba d5bd
00000050: ca68 89bf d393 dabe 38cb 4ebf 64c3 4bbf
00000060: 5ae0 2cbf 8370 48bf 1537 bdbe 2204 58bf
00000070: e3bf e53d 8a3b 8ebf 1783 b43d e889 50bf
00000080: b4fe 68be 8c2f 4f3e ce09 643f e000 c4bf
00000090: 8548 233d faf9 c8bf c9f0 9cbd fd63 9bbf
000000a0: 8aea fbbe 7f80 4ebf 8fdb 7fbf fe72 1abf
000000b0: 8dbf 8fbf 5cd2 71bd d1ac 7bbf afc5 963e
000000c0: 6a3a 43bf b030 c93e 812e 0dbf 2f6f dc3e
000000d0: db86 5bbe 93d4 0d3f ea8b 503e e8ca 083f
000000e0: f964 9e3e 28ea e63e 8e98 0a3f ced9 aa3e
000000f0: 9055 be3e 5801 97bd bcbb 5239 f09d f1be
00000100: b867 0abe 32b9 42be 9499 9b3d 09e7 d1bf
00000110: fbc6 3d3e 1c40 e3bf 9b8c f0bc 7605 e6bf
00000120: f33c 6b3e 2093 bfbf 7e85 b83e 0f2e 8ebf
00000130: 04a9 163f 38ba 73bf 902f 8b3f 7055 4dbe
00000140: 1b7d bb3f 9c0a 213e f8d7 af3f e876 143f
00000150: c4b8 883f 0509 103f 054a a33f 8e21 813f
00000160: 38ea ac3f a082 853f a71b 9a3f fde0 413f
00000170: 12c7 a83f b95d f43e ba24 ab3f 5cdb 2b3e
00000180: dc87 d4bd 366c 17be 39d2 a03f 769f 59bf
00000190: 4cb1 0f40 6a69 8bbf 4911 e03f bb67 a8bf
000001a0: 114e 893f 0b37 95bf 4a3d e53d 2e4a 96bf
000001b0: c07d 04bf 5e63 3cbf aefa 7bbf 4973 b4be
000001c0: 83f9 99bf f841 ef3b 8ef0 61bf 5863 e23e
000001d0: a034 8bbf de6c 013f 4b99 0fbf 6b31 273f
000001e0: 9bb5 bebd 6146 123f ee56 6d3e 55fd 713e
000001f0: 38fe 323f 95fe a1bd e928 413f c72c adbe
00000200: 0c28 4e3e 221b 2a3e 0ccd b4be 5c38 1fbe
00000210: 7eb0 1abf 842b 8cbe c0a8 8ebd 00fe 02bf
00000220: ef0c 773e 24d4 d4be 2b80 9b3e 49fc f4be
00000230: 839a a33e 4d54 b0be 7e24 513f 46a9 14be
00000240: 49ed 4a3f 5a94 0f3e 8053 143f 0140 413e
00000250: 5060 403f b787 f93e 53b7 8d3e 8f73 fb3e
00000260: 537f a5be 1abc 2d3f b2d2 51bf a57d 783f
00000270: f1a4 81bf 0f41 b03f 1f6f e6bf f31d f53f
00000280: 4898 8fbd 40cc 6abd 1ef6 3d3f 28f0 dfbe
00000290: 9e3b a63f f000 89be f1ce 9c3f f6ba 0f3c
000002a0: 2c9b 8b3f ed1d 503e 0699 843f 4b2a b33e
000002b0: b0a0 ce3e 1473 fe3e da36 5f3e f063 143f
000002c0: 6ea0 9fbe d1d2 0b3f 2e1c bfbe 345a 203f
000002d0: c3c9 31bf c17b 0c3f 9173 52bf 9653 133f
000002e0: dac4 6cbf 7b1a 683e 7713 75bf b9a0 97bd
000002f0: cf23 24bf bc7d a9be 7386 35bf c1b9 e1be
00000300: 0086 ca3d 342c 6d3e 665a 0b3f f367 babd
00000310: 2ef3 503f 10b7 22be 45b5 893f 3f54 58be
00000320: a925 983f 130a 01bf 2051 8c3f 4181 30bf
00000330: d5e7 a73f 408b 46bf 9723 953f 5f6d 33bf
00000340: f7e2 143f f179 45bf 7502 c63e 6b9b fcbe
00000350: 6f3e f1be 26a5 0bbf bc77 61bf 0f1d 11be
00000360: 7f0c a9bf 005f 2fbc 183f 9dbf 505f 8b3e
00000370: c0ab 9bbf 5d14 103f 0a11 79bf 8ad3 4a3f
00000380: 24ec bd3d a8d4 b83d e5ad a2bf 23e7 b33f
00000390: b27b 74bf f2ec 1540 2000 afbf 9db2 1540
000003a0: 304c 8fbf 6aec d13f 0392 0dbf 6e4d a13f
000003b0: af9a 86be dcda 3a3f be81 ed3d bd41 a43e
000003c0: 3466 883e 8770 aa3d 75cc e73e 47d9 4dbe
000003d0: 429b e13e 3d78 cebe cc39 013f a3d8 e5be
000003e0: 0bfb 033f 6928 d9be 5589 203f 71fd 94be
000003f0: 4665 163f 26e5 01bd 83f4 2d3f 488d 6c3d
-0.30859315 0.23681372 0.43264103 2.565869 -0.10850602 2.4288788 -0.08859666 1.5471519
-0.29636177 1.028448 -0.6471333 0.39486888 -0.91664207 0.13436502 -0.82844716 -0.039573852
-1.3489223 -0.09614414 -0.91484267 -0.10435937 -1.0735104 -0.42690906 -0.8077884 -0.7959502
-0.67529833 -0.7829668 -0.36956087 -0.84381306 0.1121824 -1.111192 0.08814066 -0.8146043
-0.22753412 0.20232981 0.8907746 -1.5312767 0.039864082 -1.5701287 -0.076631136 -1.2139889
-0.49202377 -0.8066482 -0.99944395 -0.60331714 -1.1230332 -0.059038505 -0.9831057 0.29447696
-0.7626101 0.39294958 -0.55149084 0.43053576 -0.21438162 0.5540249 0.20365873 0.5343461
0.3093641 0.45100522 0.5413903 0.33369297 0.37174654 -0.07373303 0.00020097097 -0.4719081
-0.13516128 -0.19015959 0.07597652 -1.6398631 0.18532936 -1.775394 -0.02936392 -1.7970417
0.22972469 -1.4966774 0.36039346 -1.1107806 0.5885165 -0.9520602 1.087389 -0.20052123
1.4647554 0.15726703 1.3737783 0.57993937 1.0681386 0.5626376 1.2756964 1.0088365
1.3508978 1.0430489 1.2039689 0.7573393 1.3185751 0.47727755 1.3370583 0.16782898
-0.103774756 -0.14787373 1.2564155 -0.85008943 2.2451963 -1.0891545 1.7505275 -1.3156656
1.0726949 -1.1657423 0.111933306 -1.1741388 -0.5175438 -0.7358912 -0.9842938 -0.35244206
-1.202927 0.0073015653 -0.8825768 0.44216418 -1.0875435 0.50556743 -0.5609328 0.6530978
-0.09311982 0.5713864 0.23177692 0.23631795 0.6991916 -0.07909886 0.7545305 -0.33823225
0.20132464 0.16611913 -0.35312688 -0.15548843 -0.60425556 -0.2737695 -0.0696578 -0.51168823
0.24126028 -0.415681 0.30371222 -0.47848728 0.3195382 -0.34439316 0.8169631 -0.14517698
0.7926832 0.14021435 0.5793991 0.18872072 0.7514696 0.48736355 0.27678928 0.49111602
-0.32323703 0.67865145 -0.8196212 0.9706672 -1.0128461 1.3769854 -1.8002661 1.9149765
-0.07011467 -0.057323694 0.7420367 -0.43737912 1.2986944 -0.26758528 1.2250654 0.008772602
1.090673 0.20323916 1.0359199 0.34993204 0.4035697 0.49697173 0.21798268 0.5796499
-0.31177086 0.54618555 -0.37326187 0.6263764 -0.6944849 0.54876333 -0.8220759 0.57549417
-0.9248787 0.22666351 -0.95732826 -0.07403702 -0.6411714 -0.3310374 -0.7090828 -0.4408703
0.0988884 0.23161393 0.5443481 -0.09101858 0.8162106 -0.15890145 1.0758444 -0.21125887
1.1886493 -0.50406 1.0962257 -0.68947226 1.3117625 -0.7755623 1.1651486 -0.7008876
0.5815882 -0.7713919 0.3867375 -0.49337325 -0.47117946 -0.5454887 -0.88073325 -0.14171241
-1.3206939 -0.010703802 -1.228488 0.27221155 -1.2161789 0.5628107 -0.97291625 0.79229033
0.09273556 0.09024936 -1.2709318 1.4054912 -0.95501244 2.342587 -1.3671913 2.3390267
-1.1195126 1.6400273 -0.5530092 1.2601755 -0.2628989 0.729902 0.11597012 0.32081404
0.26640475 0.08322244 0.45273176 -0.20102416 0.44063765 -0.4032611 0.50478816 -0.44891843
0.51554936 -0.42413643 0.6270955 -0.2909961 0.5874828 -0.031712674 0.6795122 0.057751924
